seminars/cifar_net.pth (torch, 250887 bytes, 10 tensors)

conv1.weight f4 [6, 3, 5, 5]
00000000: b796 91bd 1e19 dfbd 1e99 6abd 9715 72bd
00000010: 944a 55bd abb2 52be baba eebd a0be 65be
00000020: 403c 11be 14b3 17be 62ee 0dbe 56ca 56be
00000030: 7bfa 31be 8d79 08be 4e94 1dbe be7d 5abd
00000040: 6879 4dbd 185d 3c3d 97b6 7ebd 790e 963c
00000050: 18cb 06be ccc3 a0bb dbb5 a23b 3b6b 403d
00000060: ec6d a1bd ed44 083e 2da0 2abd 8555 c6bd
00000070: d098 a6bd e24a de3a 2138 1cbe f35b e6bd
00000080: c4f3 83be 8eab a2bd 4bb0 bbbd 0bf6 08be
00000090: 9075 21be 3ce8 1a3c 22d6 88bc 91dc a63c
000000a0: 35d7 f5bd ff38 acbb 2b40 ac3c daed 203e
000000b0: ba2a af3d 9e68 35be 1b80 f4bc 9451 9abd
000000c0: 6baa fcbb 3aba 33be 7664 e73d cc72 c33d
000000d0: b42a 423d 4890 913d ab65 1d3e 1ba1 073e
000000e0: a6c6 043e 6a21 943d 6927 e43c fbf1 993d
000000f0: 08f2 203e bbec 4f3e b6b2 a03e 394f 4c3e
00000100: 4e6f 943e cf61 6a3e 00d0 bd3e 9d03 e63e
00000110: 7605 de3e 24a2 a63e 4f47 fe3d 0154 e23d
00000120: 13a9 833e 51f8 ec3d 857f ee3d af4b 733e
00000130: 35e3 d03b 186d c23b 7ece bdbd 55c4 453e
00000140: 65f6 9f3e acee 363e a153 523e 3ca6 fcbd
00000150: 32b9 f9bd 3489 4b3e 74a4 843e 8359 723e
00000160: 8dd2 e7bd 4223 0bbe 14a9 9d3d 1fd7 083e
00000170: 1522 3a3e e6d9 413e 6047 1bbe a6c1 f7bd
00000180: eb2e 953d 8bd2 563d e01a 383d 2e50 f83c
00000190: 68e5 55bd 4ccb afbd 6c2f abbe d53a 9bbe
000001a0: 988f 46bb 7037 843d 6498 cd3d 77dd 52be
000001b0: 93a4 74be c781 b2be 9404 1ebd 6c86 be3d
000001c0: 26f4 823d 71ca b9bd 8d72 87be 803c fbbd
000001d0: 1f45 c03d d5a8 7a3d 8665 85bd 5d63 1fbe
000001e0: cbfd 26be dcb4 46bd 6c04 c33d 348b b83d
000001f0: 4c6e a2bd b152 c53d a951 b53c 4524 79be
00000200: ab99 a1be fb36 c6bd 1814 803e 95d8 023e
00000210: 9949 19be 0959 c5be 0e4f 6abe cc1c 783e
00000220: b218 593e ae92 773e 97b8 babc fb93 acbe
00000230: 2315 b93d 9866 8a3e 94d1 2f3e 8b55 ce3d
00000240: e649 59be 530e 623e ac6b 0f3e 5528 b23e
00000250: d48c a23e 9dcc 66bd 2f08 b9bc 4d25 503e
00000260: 73b8 353e 8053 1a3e 07c7 293e 4421 583e
00000270: a71c 7d3e 660f 3b3e 35d9 ff3d cab6 523d
00000280: 2ad2 b03e 181a 393e 68c5 6f3d 88ff abbd
00000290: 9f4f 56bd c49e 8f3e 9256 083e 4793 abbe
000002a0: fd22 063d 7ddc 3b3e eb8a 0c3d 4b6d 9cbe
000002b0: 362e e1be a867 ce3d bd74 543d 1ec6 24be
000002c0: 4043 0bbe e0e6 d3bd 7ee9 cdbd 3b08 b7be
000002d0: b444 afbd 0968 3cbe c605 e3bc 4413 81be
000002e0: 9a8b 81be d463 d43d 19a1 38bc e92a 8cbe
000002f0: 017d 82be bf06 81be c9ad b23e d51b debd
00000300: 3b2e e6be 73f0 63be daa1 293e 3ec5 dd3d
00000310: 3599 6fbe fb47 d8be f6fd 843b 4ee2 923d
00000320: 490b 0cbe 93eb e9bd a369 ccbc 67b1 abbd
00000330: a007 1bbe 4ea4 d9bc b5bc 8d3d df20 903d
00000340: 87f5 57bd 5235 91bd 8534 8e3e 0858 313e
00000350: 4598 2dbe ffc8 fdbd 18c2 a4bc fae9 8e3e
00000360: 021e 42bc 9dc9 96be f401 6bbd 41f3 863e
00000370: 98bc 783e 418f f7bd d030 41be c06a 1f3e
00000380: e687 813e b7ea 56be 99b3 adbe 01e5 b03c
00000390: 18b2 423d 7302 38be fdb2 a7be 6c76 38be
000003a0: 66de 0e3d bd5e c6be 66c2 96be ce11 03be
000003b0: 3b28 9d3d 5755 31bc 87a0 91be ca5a 6abe
000003c0: b7ec cd3e f8bc 26be 720b 8bbe 7ce9 933e
000003d0: 06e1 903e 2988 043e 6914 273e cfda 843d
000003e0: e2b6 513e 6fb0 db3d 14d4 a83c befd 9abd
000003f0: 5176 043e 24c6 6b3e f268 9dbd eb02 4dbe
-0.07108825 -0.108934626 -0.05727493 -0.05910262 -0.052073076 -0.20575969 -0.11656709 -0.22435999
-0.1418314 -0.14814407 -0.13860467 -0.20975623 -0.17380707 -0.13327618 -0.15388605 -0.053342573
-0.05016461 0.04598722 -0.06218585 0.018317448 -0.13163412 -0.0049061533 0.0049655265 0.046977263
-0.07882294 0.13307543 -0.04165666 -0.0968428 -0.081346154 0.0016959573 -0.15255786 -0.11248007
-0.25771916 -0.07942878 -0.091644846 -0.13375108 -0.15767503 0.009454783 -0.016703669 0.020368846
-0.12003938 -0.005255818 0.021026691 0.15715733 0.08553071 -0.1771569 -0.029846242 -0.07535091
-0.007710745 -0.17551509 0.11298458 0.0954338 0.047404006 0.071075976 0.15370815 0.1324505
0.12966403 0.07232936 0.027850823 0.07516857 0.15717328 0.2030515 0.31386346 0.19952096
0.2899117 0.22888874 0.37072754 0.44924632 0.4336354 0.32545578 0.12415945 0.11051179
0.2571493 0.115708 0.11645416 0.2375934 0.0063747414 0.005933415 -0.09267901 0.19313176
0.31242672 0.17864484 0.20539714 -0.12336394 -0.12193526 0.19876558 0.25906718 0.23666959
-0.11319456 -0.13587669 0.07698265 0.13363312 0.18177064 0.18930778 -0.15163946 -0.120974824
0.072843395 0.052446883 0.044947505 0.03031167 -0.052220732 -0.08583698 -0.33434618 -0.30318323
-0.003029799 0.06455886 0.10038832 -0.20592295 -0.23890905 -0.34864637 -0.038578585 0.09302983
0.06394224 -0.09071816 -0.26454583 -0.12267399 0.09388184 0.061196167 -0.06513505 -0.15565248
-0.16307752 -0.048512325 0.09522328 0.09010926 -0.07931194 0.09634913 0.022133665 -0.24330242
-0.31562552 -0.096784554 0.2501533 0.12777932 -0.14969482 -0.3854449 -0.2288172 0.24229735
0.21200827 0.24177048 -0.022793097 -0.3370665 0.09037235 0.27031398 0.17169791 0.1007491
-0.21219596 0.22075777 0.14005917 0.34796396 0.31748068 -0.05634748 -0.02258691 0.20326729
0.17746143 0.15070915 0.16579829 0.2110644 0.24717961 0.18267593 0.12492601 0.051443852
0.34535342 0.1807636 0.05853787 -0.08398348 -0.052322026 0.28050816 0.13314274 -0.335108
0.03274821 0.18345828 0.03431217 -0.30552134 -0.4398057 0.100783646 0.051869143 -0.160912
-0.13599873 -0.1034677 -0.10054301 -0.35748467 -0.08558026 -0.18399061 -0.027712714 -0.2521001
-0.2530182 0.10370603 -0.011268877 -0.27376488 -0.25485995 -0.2520046 0.34898213 -0.10845152
-0.44957146 -0.22259693 0.16565648 0.108286366 -0.23398288 -0.42242417 0.004058595 0.071720704
-0.1367618 -0.11421885 -0.024952715 -0.08383446 -0.15139627 -0.026567604 0.06920759 0.0703752
-0.052724387 -0.07090248 0.27774444 0.17318738 -0.16952617 -0.123918526 -0.020112082 0.27912885
-0.011847975 -0.29450694 -0.05737491 0.26357463 0.24290693 -0.120878704 -0.18866277 0.15568066
0.25298995 -0.20987974 -0.33926085 0.021593573 0.047533125 -0.17969684 -0.32753745 -0.18013924
0.034880064 -0.38744155 -0.2944519 -0.1279976 0.07673689 -0.010823569 -0.28442785 -0.22886196
0.40219662 -0.16283023 -0.2715717 0.28889072 0.2829668 0.12942566 0.1631638 0.06487047
0.2047992 0.107270114 0.02060894 -0.07567929 0.12935759 0.23024803 -0.07686032 -0.20020644

conv1.bias f4 [6]
00000000: 1b5e 023e 68cd 9abe fec6 84be 8a73 413e
00000010: 77c9 ecbe d0d4 68be
0.12731211 -0.30234838 -0.2593307 0.18891731 -0.46247455 -0.22737432

conv2.weight f4 [16, 6, 5, 5]
00000000: 5733 9cbd 956a 06be 12da 5ebd 914b 3d3d
00000010: 4a86 e03d 8aeb 46be 7e51 f1bc 421e b73c
00000020: fd63 1c3e 1025 113d 4606 bcbc 468a 203d
00000030: 514f cf3d d3e4 32bd 660e babc 8254 c63d
00000040: 97bd 5ebd 3b8e c03b 0f30 f1bb e2a0 a7bd
00000050: b149 6c3e a6f5 d33d b7ec 23bd 7c06 4c3d
00000060: cb02 b93d 809d e2bd 4a1d c0bd 7461 cfbc
00000070: 987b fe3c e027 c5bd 9e1e 22be 3e43 03be
00000080: 5c68 f0bc ac12 a1bd af08 563c b868 32be
00000090: 26f3 45be 5adf 08be 24af 673b 0a02 013a
000000a0: 347e 67be 39f8 05be 99d4 12be 54cd 0cba
000000b0: 7c03 283e ecbe f3bd 3b36 3cbd cd69 77bd
000000c0: da96 2cbd 828a 273e 1697 c9bd a9ed d4bd
000000d0: 874a 333d 8a2c b2bd d781 b9bd 8af9 dcbc
000000e0: 9cf0 e1bc 2663 2dbd bbc2 f2bd 9ed3 5abe
000000f0: d8a6 c8bb 8663 cebc 8f5d dabc 1c91 cbbd
00000100: 313d 52bd 2f89 2dbc 6aa7 33bd 44bb 20be
00000110: fdbb afbd 9934 0ebe 3f68 913c 2706 c7bd
00000120: 6d05 64bd e736 b1bd c5e8 50be a96b b83c
00000130: 38d0 7dbd db06 38bd 4102 47bc 377a b8bc
00000140: 0dc3 32be 6fc8 8a3c 657e c63d 3f2e 693d
00000150: c00b 8b3d 8d01 2ebe c3ee bbbc 8bfc 77bd
00000160: dfcd 31bd f41b f0bd d904 a33b 5638 c1bd
00000170: 94c1 82bd 90b1 fb3b 5244 f9bc 1e6d b1bd
00000180: 4e6e dbbd 7e08 82bd ab22 d1bd 78f4 d0bd
00000190: e8ba 373d d30d b23d 6af3 603d fb62 983d
000001a0: 5a33 39bd 6219 a93c b7e9 323d e684 d03d
000001b0: 586b 893d e81d fbbd 03f9 fabc 6d15 e8bd
000001c0: b69a 3abd f8a2 11bc 8a61 34bd f5a3 ccbd
000001d0: 4d7e 2cbe b294 62bd 8b8b 16be 3622 3cbe
000001e0: 73bb c3bd c996 a9bd 5f52 24bd 70ce e4bd
000001f0: 45de 31be 1b6b 8ebc 20c6 c73c 6124 9b3d
00000200: b679 133e dbec af3e 1c5a 01be b434 953c
00000210: 0062 073e 954c a23e 7778 0c3e 0ebd 8f3d
00000220: 2005 f33d 130a 723e 1a40 873d 6b94 a5bd
00000230: 364f 5e3d 4659 263e 6784 a63d 78ec 163d
00000240: fdb8 c13c 4713 fd3d c71f 133e 915c ab3d
00000250: 9975 b43c 4731 a03d 5b6d 44be 71cd 763d
00000260: 6367 1dbc 0158 f3bd 63f7 e13c c4bb 68bc
00000270: 2b94 84bb 17fa 4dbd 4ea9 2dbd 3814 3c3d
00000280: fe82 f6bd 8648 c5bd b335 b2bd 6652 a2bd
00000290: f927 8d3d 8bca 56bc e3f8 55bd 5690 963d
000002a0: d6d7 97bb 98d5 82bd ceda 8cbd 87b2 cebc
000002b0: b40c 143d eb88 843d 9aab 363d d066 5dbd
000002c0: 354a 10be 25e9 87bd 54f9 b0bd 4902 8a3d
000002d0: ec37 603d 870e f9bd 96a5 ebbd 3e6c afbd
000002e0: 8f31 d83c c5e2 07be 06d9 d2bd f7b1 6ebd
000002f0: 2ac0 41bd 11ce 8ebd 44cc 4bbd e784 28bd
00000300: ef14 acbd 643b d83a 5190 4ebc fd46 c93d
00000310: 22de 52bc f2d8 c7bd e455 c0bc d077 36bd
00000320: b6d0 423e b360 e03d 038f 3c3e 45e6 a33e
00000330: 5454 2e3e 0696 27bd 281d 4f3c 5ff5 af3e
00000340: 8b83 233e 23c2 fb3d cf9d 5abd f6ff aa3e
00000350: 8a19 553e 4688 963d 00ec 25bb 02c7 6a3d
00000360: c3ae 793d a257 ca3c 7b24 473d e939 b13d
00000370: c7a3 a3bd 637b d1bd 42ce f1bd c4cb 70bd
00000380: bf8d b2bd d594 333e 2bf7 513e ae84 3b3e
00000390: 7649 ea3d a055 e53c 99fe 5e3e 0e31 013e
000003a0: f198 c73c 79e3 3abe 90ce 75bd 04ab 46bb
000003b0: c991 00bd 896c 2cbe a9de 823a 28b8 7ebd
000003c0: 86c3 1d3b efa4 16bd 0693 fcbc 67fe 26bb
000003d0: f78c bdbd 2341 54bd 8ff8 94bd 683a c4bb
000003e0: 2f6d 923c 4961 ccbd 829c 07bd 74f4 a5bd
000003f0: 524a b5bc 7a72 05be 9968 353c 1785 9abd
-0.0762698 -0.13126595 -0.054407187 0.046214644 0.109631136 -0.19425789 -0.029457804 0.022353295
0.15272518 0.035435736 -0.02295221 0.039194368 0.1012255 -0.043675255 -0.022711944 0.09684087
-0.054380026 0.00587633 -0.0073604654 -0.08184983 0.23074986 0.10349588 -0.04002067 0.04981087
0.09033736 -0.11065197 -0.093805864 -0.025315024 0.031064793 -0.09626746 -0.15831992 -0.1281862
-0.029346637 -0.078648895 0.013063594 -0.1742276 -0.19331035 -0.13366452 0.0035352195 0.00049212633
-0.22606736 -0.1308297 -0.14338912 -0.00053711724 0.16407579 -0.1190165 -0.045950156 -0.060403634
-0.04213605 0.1636143 -0.098432705 -0.103968926 0.043772247 -0.086999014 -0.09057968 -0.026974458
-0.027580552 -0.042330883 -0.11853548 -0.21369788 -0.006123405 -0.02519394 -0.02665594 -0.09939787
-0.051327888 -0.010591789 -0.04386083 -0.15696436 -0.08580778 -0.13887252 0.017749904 -0.0971797
-0.055669237 -0.0865305 -0.20401295 0.022512274 -0.06196615 -0.044928413 -0.0121465335 -0.022519214
-0.17457218 0.016941277 0.096920766 0.05692887 0.067893505 -0.16992779 -0.022940999 -0.060543578
-0.043409225 -0.11724082 0.004974943 -0.09434573 -0.06384578 0.007681079 -0.030428085 -0.086633906
-0.10714398 -0.06349276 -0.102116905 -0.10202879 0.044855982 0.08694043 0.054919638 0.07440754
-0.04521499 0.020641986 0.04367992 0.10181598 0.06709927 -0.122615635 -0.030636316 -0.11332212
-0.0455577 -0.008888952 -0.044038333 -0.0999221 -0.16845055 -0.05531759 -0.14701669 -0.18372425
-0.095572375 -0.08280713 -0.040117618 -0.11172187 -0.17369945 -0.017385056 0.024386466 0.07575298
0.14401898 0.34360394 -0.1263203 0.018213607 0.13220978 0.31699052 0.13717829 0.07018481
0.11866212 0.23636656 0.06604023 -0.08084949 0.05427476 0.16244993 0.081307225 0.036846608
0.02364778 0.123571925 0.14367591 0.08367265 0.022028731 0.07821899 -0.19182341 0.060254518
-0.009607169 -0.1188202 0.027583783 -0.014204923 -0.0040459833 -0.050287332 -0.04239779 0.04591772
-0.120367035 -0.096329734 -0.087016486 -0.079258725 0.0689239 -0.013109813 -0.05223931 0.07351749
-0.004633884 -0.06388396 -0.06877671 -0.025231613 0.036144927 0.064714275 0.044597246 -0.054053128
-0.14090808 -0.06636266 -0.086413056 0.06738717 0.05474083 -0.12160974 -0.115061924 -0.085655674
0.026390819 -0.132701 -0.102953 -0.05827519 -0.047302403 -0.06972898 -0.04975535 -0.04114237
-0.0840243 0.0016497192 -0.01260765 0.09827993 -0.012870343 -0.09758176 -0.023478456 -0.044547856
0.1902493 0.10955944 0.1841393 0.3201162 0.17024356 -0.040914558 0.012641229 0.3436689
0.15968148 0.12292888 -0.053373154 0.33398408 0.20810524 0.07350211 -0.002531767 0.057318695
0.06095768 0.02469999 0.048618775 0.086536236 -0.079902224 -0.10228612 -0.11806919 -0.058788076
-0.08718442 0.17537244 0.20504443 0.18312332 0.11439793 0.02799493 0.21776809 0.12616369
0.02436492 -0.18250836 -0.060011446 -0.0030314336 -0.03138903 -0.16838278 0.0009984571 -0.062187344
0.002407284 -0.036778387 -0.030831825 -0.0025481225 -0.092554025 -0.05181993 -0.07273971 -0.005988408
0.017874328 -0.09979493 -0.03310824 -0.08103266 -0.022130165 -0.1303195 0.011072301 -0.07544916

conv2.bias f4 [16]
00000000: fc31 123e 5c5b f73c c721 273f 4aad d93d
00000010: 3323 1c3e a7b7 063c 3a88 83be 1397 6ebe
00000020: a00a 2ebd 46a5 04bf 87da e7be a929 ea3d
00000030: 02d1 94be cd96 753f 02ac 103d 1681 5a3e
0.1427688 0.03019493 0.65285915 0.106287554 0.15247802 0.008222497 -0.2568987 -0.23299818
-0.0424906 -0.5181469 -0.4528391 0.11433727 -0.2906571 0.9593323 0.03532029 0.21338305

fc1.weight f4 [120, 400]
00000000: 48e7 0fbd 0d1d f03c 61fc 48bd 84fd dcbc
00000010: 7358 893c b413 be3c 9a94 18bd 9d07 2a3d
00000020: 599a b4ba 1436 c13c aeec 2b3d a409 11bd
00000030: f52b 963c bc29 61bc 5e23 1ebd 08d7 26bc
00000040: 9515 053d 13f3 183d 3c0d 523c f81d 243d
00000050: e6f9 6339 496b 34bd 5148 89bc 3654 0a3d
00000060: 83a1 803c 06b5 1fbc fdfa 613c c354 bc3c
00000070: 4327 3dbd 8303 16bd 1914 1cbd 1536 633b
00000080: 2bcf 69bb 533c 28bd a89e e9bc a5c3 403c
00000090: c5be c2bc 56f7 e63b 7cab 01bd 9f9a 523d
000000a0: 2073 e4bc efef 3bbc 8c11 163d f7ff c0bc
000000b0: de8b cfbc e9d4 983c 3d90 1cbd 5c2b 9f3c
000000c0: 5b2e 2e3d a2cb 2bbd 5768 213c 6e56 17bd
000000d0: 7b45 343d b80e a4bc 9316 33bd 8867 5cbb
000000e0: e04f 3dbc de71 4f3d 6337 d9bc 6f3e c7bc
000000f0: f04f d8bc 1835 a3bc 8d8d 783c 8959 d0bc
00000100: 4a65 9bbc 0627 e2bc 0465 e33c f47b aebc
00000110: 006c e33b c6b3 0b3d 2044 d8bc d970 4fbb
00000120: 5ffa 2aba f353 003d 49bb b1ba 29c5 153d
00000130: fd21 35bd 84a3 6cbb e60e 37bd 2892 223d
00000140: 735d bbbc 1355 ca3c 587c fb3c 825b 46bd
00000150: 8795 74bc ef02 693c 04bc 86bb 64e4 24bd
00000160: 13d4 0abc d6dd 09bd c1e1 29bd e511 26bd
00000170: ea93 88bc 002c 3cbd b0c5 dbbc 747a 1c3c
00000180: 2a30 d0bb e74f b1bc 04fc 3abd bb4e babc
00000190: 254c 36bd 9666 49bd c092 50bd afcb 093c
000001a0: 2b09 b0bc 1d71 d1bc 1410 1abc c1f8 513c
000001b0: 9069 11bd e218 ee3c 971c cd3c 9275 72bb
000001c0: 8a86 ccbb 409e 58bc 3a9a 043d db98 cc3c
000001d0: 7f9b 04bd ae53 e23c 91df 483c 4a2c cf3c
000001e0: a9a3 17bd 46c8 a93c 5572 b339 0957 cd3c
000001f0: 4a13 cebc 8029 203c 677f 4ebd 42d6 6c3c
00000200: 545d bd3c 8059 48bd 03ab 823c 63d3 be3c
00000210: d18d 99bb 3ea4 d2bc 3570 c9bc e845 2bbd
00000220: bd5a 2bbd 4a1f 44bd 5e4d 213c 115b 773c
00000230: fc83 3d3d e3b7 47bd bec7 e6bc 676a 44bc
00000240: 6ee9 9a3c b714 2dbd c38c 15bd d15e 26bd
00000250: 474a 09bd 4238 ddbb c108 2b3d c0ae 283d
00000260: 2a76 c03b 340e c3ba 4b1e b43c c4ef 3c3b
00000270: 375a 28bd f907 3fbd e92c 39bc 55f5 8e3c
00000280: bc38 c13c f38c 253c 0955 43bd 4753 2b3b
00000290: c8cf 3fbd 9399 53bd 51ad 37bb 1d85 74bc
000002a0: cbfd 5e3c 23f5 57bd 1357 49bd 9b15 4a3c
000002b0: bc0c 2dbd 6f75 89bc f042 21bd 1319 023c
000002c0: f88a 8fbc 6da2 b03c 4e69 5abd b56a 113d
000002d0: f08e 573c b7fb 65bc 6686 13bd 2591 65bc
000002e0: 84da 1f3d fad3 993c f132 b6bc a3b3 d0bc
000002f0: b050 bfbc 0f6a 33bd a302 04bd 30cd aabc
00000300: 01d1 1b3d 3308 36bd a8e3 273d 8a66 c43c
00000310: 17b8 0dbc ad61 1a3d 0b59 bbbb e025 a2bc
00000320: 274a 87bb e2d1 2c3d 67bd 06bd 5a1a 5039
00000330: d331 4ebc e020 18bd 43a1 1a3d 98f7 2c3d
00000340: 4d40 e0bc 082f 043d dfec b63c c5ff 11bd
00000350: 5848 a73c 413c 1ebd 39db 353d 3096 e1bc
00000360: 564f dcbc 4aa7 b5bc 3eea f33c afa3 423d
00000370: 967d cdbc 19f1 01bc 86e0 0d3d 5eae 2d3c
00000380: 61f1 7bbc 463d 35bd 44b6 123d 149e 63bd
00000390: 5589 5abc 2631 5a3c af2e 67bb 8622 0cbd
000003a0: 2501 b4bb 55eb f53c c7f9 233d 2348 3dbd
000003b0: 7ea8 843c f59a 86bb f7d1 4a3b 1233 c33b
000003c0: 8023 ddbc 12c7 6c3c acaa 60bd 7793 113d
000003d0: 9881 41bd 15cb 1abd bcee 093d e917 77bb
000003e0: 0d14 f63b e5ec ae3c b0e5 2a3d 7cdc d1bc
000003f0: 8c2e 183d 4841 e5bc e81f c33a 5bea 15bc
-0.035132676 0.029310727 -0.049068812 -0.026976354 0.016765809 0.023202755 -0.037251092 0.041511167
-0.0013778909 0.023585357 0.041973762 -0.035409585 0.018331507 -0.01374286 -0.038607948 -0.010183103
0.032491285 0.03734119 0.012820538 0.040067643 0.00021741501 -0.044047628 -0.016758116 0.033771716
0.015702015 -0.009747749 0.01379275 0.022989636 -0.04618002 -0.036624443 -0.038105104 0.0034669687
-0.003567646 -0.041073155 -0.028518036 0.011765395 -0.023772607 0.0070485277 -0.03165768 0.05141699
-0.027886927 -0.011470779 0.036637828 -0.023559554 -0.025335249 0.018656211 -0.038223494 0.019429855
0.042524677 -0.041942246 0.009851537 -0.03694766 0.044011574 -0.02002655 -0.0437227 -0.0033631045
-0.011554688 0.0506457 -0.026515668 -0.024321763 -0.026405305 -0.019922778 0.015170467 -0.025433319
-0.018969197 -0.027606498 0.027758129 -0.02129934 0.006940365 0.034106992 -0.026399672 -0.0031652956
-0.00065222936 0.03133006 -0.0013559844 0.03656498 -0.044221867 -0.0036108205 -0.044691943 0.039690167
-0.022871708 0.02469877 0.03069894 -0.048427112 -0.014928228 0.014221891 -0.0041117687 -0.040256873
-0.008473414 -0.033658825 -0.04147506 -0.04054441 -0.016672093 -0.0459404 -0.026827663 0.0095506795
-0.006353398 -0.021644546 -0.045650497 -0.02274262 -0.04450621 -0.0491701 -0.0509212 0.008410378
-0.021488747 -0.025566632 -0.009403247 0.012815655 -0.035501063 0.0290646 0.025038047 -0.0036996347
-0.0062416242 -0.0132213235 0.032373644 0.02497523 -0.032374855 0.027627792 0.012260334 0.025289673
-0.037021313 0.02072538 0.00034226725 0.025065916 -0.025155682 0.009775519 -0.05041447 0.01445538
0.023115791 -0.04891348 0.015950685 0.023294156 -0.0046860953 -0.025713082 -0.024589637 -0.041814715
-0.04183458 -0.047881402 0.009845106 0.0150973955 0.04626845 -0.048759352 -0.028171416 -0.011988259
0.018910136 -0.042256083 -0.036511194 -0.040617768 -0.033518102 -0.006751091 0.041756395 0.04118228
0.0058734613 -0.0014881552 0.021987101 0.0028829435 -0.04110166 -0.046638463 -0.011302211 0.017450968
0.023586623 0.010104406 -0.047688518 0.0026142166 -0.046829015 -0.05166013 -0.0028026889 -0.014924315
0.013610314 -0.052724015 -0.049155306 0.012334253 -0.042248473 -0.01677963 -0.039370477 0.0079405485
-0.01752232 0.021561826 -0.053323083 0.035502154 0.013156638 -0.014037064 -0.036016844 -0.014011656
0.039026752 0.018777836 -0.022241088 -0.025476282 -0.023353904 -0.043802317 -0.032229077 -0.020849794
0.03804112 -0.044441413 0.040988594 0.023974676 -0.0086498475 0.037690807 -0.005717402 -0.01979345
-0.0041287127 0.042192347 -0.032895472 0.00019846243 -0.012585121 -0.037140727 0.037751447 0.04222831
-0.027374411 0.032271415 0.022329746 -0.03564431 0.020420238 -0.03863168 0.04439852 -0.027537435
-0.0268933 -0.022174496 0.029774781 0.047519382 -0.025084298 -0.007931017 0.03463795 0.010600654
-0.015377373 -0.044247888 0.035818353 -0.055570677 -0.013338407 0.013317382 -0.0035275628 -0.03421261
-0.0054933005 0.030019442 0.040033128 -0.046211373 0.016193625 -0.004107828 0.0030947903 0.005957016
-0.026994467 0.014451759 -0.054850265 0.035541024 -0.04724273 -0.03779133 0.03367494 -0.003770346
0.0075097145 0.021353194 0.041722953 -0.02561783 0.037153766 -0.02798523 0.0014886828 -0.009150113

fc1.bias f4 [120]
00000000: f6e4 243d 77f7 bd3d 5eca 8f3c 664c 4bbd
00000010: 8e8a f0bc 413a 1b3d 1625 dabc 92be c4bb
00000020: 18a0 903b 0ca8 01bd 0da3 683d e28d 4a3c
00000030: 9a77 ce3c 032a cebc 3390 e53a 8e50 c83d
00000040: 92b1 9d3d 23e2 d33d d159 733c cce8 863d
00000050: 23e7 4fbc 3932 c43d 5bd4 0fbd 8644 e7bb
00000060: f114 54bd 6057 733d 5630 e8bd c053 093d
00000070: 7f2a 88bc f061 ccbc f67e 893d 670e 013e
00000080: 4d04 433c 2d3f 373d f86f 8e3d 682b 28bd
00000090: 151f 4fbc 4a52 dc3d cf20 673a 14cb c13d
000000a0: f195 6c3c 07cf 993d a568 a7bd 29aa a13a
000000b0: 1b51 d13d a3bc 10bd 6812 7d3c 60ca 603d
000000c0: d433 b5bc f680 3e3b 9da6 d13d bd39 5abc
000000d0: 2a38 a03c 2662 2e3e 9850 003e 9532 ba3d
000000e0: 7373 a93d a36a 013c c601 0cbd 4fd0 a4bd
000000f0: 1dda 7abd 7b44 35bc 3b15 7e3d 0c7c cb3c
00000100: 5118 5b3e 697d f53d 509d d03d ee71 f1bc
00000110: 742d e93d c98c 9dbb 1f80 0c3c cc1d bf3c
00000120: 89db 343d 3aa3 66bc f9e0 d9bc b96b 9dbd
00000130: 7359 bf3c d0ac 3cbc 9ac5 1a3d 4bec bf3d
00000140: 346f be3d 35ba babd 8e24 2fbd f9d3 0e3c
00000150: 7fc4 2c3d acfe ab3d a1b2 4b3d 8193 033b
00000160: 22d5 5abd 8e2e 5fbd a99d 1dbd 6e98 493e
00000170: 927d 5fb9 851a a8bd 03fc 5a3e 950d 31bd
00000180: ed71 62bd faeb 3fbb 3dd0 bd3d b0b7 ea3c
00000190: e3b4 853d ff93 abb7 4b74 41bd 4d83 28bd
000001a0: 8285 993c f9c2 ce3d d144 c5bc 6e8b 333d
000001b0: 3228 52bc bd9f ce3c a8ee c93c 5d04 823d
000001c0: 6e58 02be e61d 38bd 3483 b8bd 189f 39bd
000001d0: 71b0 fa3d 0e37 0f3e 2f93 f83b 1489 0cbe
0.040257417 0.09275716 0.01755255 -0.049633406 -0.029362943 0.037897352 -0.026629012 -0.006004163
0.004413616 -0.031654403 0.056796122 0.012362929 0.025203515 -0.025166517 0.0017514288 0.097809896
0.076998845 0.103458665 0.014852957 0.06587371 -0.012689385 0.09579892 -0.035114627 -0.007057729
-0.051777784 0.0594095 -0.11337344 0.033527136 -0.016621826 -0.024949044 0.06713669 0.1260315
0.011902881 0.044737983 0.0695495 -0.04105702 -0.012641688 0.10757883 0.00088168395 0.09462562
0.014440046 0.075101905 -0.08174256 0.0012334037 0.10220548 -0.035336148 0.015446283 0.0548805
-0.02211944 0.0029068566 0.10236857 -0.01331943 0.019558031 0.17029628 0.12530744 0.09091679
0.08273973 0.007898959 -0.03418138 -0.08047544 -0.061243165 -0.01106369 0.062031966 0.024839424
0.21395995 0.11986811 0.10186255 -0.029473271 0.113856226 -0.0048080427 0.008575468 0.023329638
0.044154678 -0.014077002 -0.026596533 -0.07686562 0.023358082 -0.011515811 0.037786104 0.09371241
0.09298554 -0.091175474 -0.04275947 0.00871753 0.04217958 0.08398184 0.0497309 0.0020076933
-0.053425916 -0.054487757 -0.038480435 0.19687054 -0.00021313716 -0.08208183 0.21385197 -0.043225843
-0.05528443 -0.002928494 0.09268234 0.028652042 0.06528642 -2.0453705e-05 -0.047230046 -0.041140843
0.01874042 0.10095782 -0.024080666 0.043834142 -0.012826966 0.025222654 0.024649933 0.063484885
-0.12729046 -0.04495039 -0.090094 -0.04531774 0.12240685 0.13985845 0.007585905 -0.13724166

fc2.weight f4 [84, 120]
00000000: b8dc 54bd 7bf3 0e3e 0169 403c fed2 443c
00000010: 404b cdbc 56ad b0bd 5f54 ae3d 2915 413d
00000020: 8f50 0cbd b235 583c af43 4bbd 6e4a 553d
00000030: 2e14 8fbd f74c 01bd 2d2e 543d d617 0dbe
00000040: 06ec a43d 0471 853d cbff 95bd 2622 4ebd
00000050: 7b54 8abb 221a fe3d dc20 b13d b444 eabc
00000060: 651d 42bd 3f11 0cbd 1b5e 5bbd c57e 4dbc
00000070: d031 833c c7ac ad3d d620 323e be30 dd3d
00000080: af2b 88bd c080 113e 015a 543c 8261 d3bd
00000090: a47e 443c bb07 833d 2b16 a23c 1f05 15bc
000000a0: 3881 d53d 0bdf 2539 708e 653d a7f7 09bd
000000b0: 97cb 39bd 1728 94bd 393c 93bd 7dab d4bb
000000c0: 5ab8 34bd c3cb b53d 5571 803d 604f cb3d
000000d0: 6937 653d 7264 0dbe 3fd5 4fbe f113 13be
000000e0: dbe6 233c 926c 583d 37db a23d 7ceb 65bd
000000f0: 7b73 cd3d e5b5 913c 321c cfbc 846b e83d
00000100: 84f4 04be 23ff 20bb f7d6 99bd 1df5 783d
00000110: a6fb 49bd 9ca4 c03d 84c1 b7bb 65a7 a9bb
00000120: 8da6 973d aa9e 6a3c d7c0 35bd 8d4f fbbc
00000130: 7bb9 0abe 9cf8 933d e012 91bd a3b8 9f3c
00000140: 27cb 45bd 6f84 1b3e 5d69 0e3e b8df ae3d
00000150: 4a40 0ebc 7d4e ebbd 797f a1bd ccef 68bd
00000160: 7133 ab3d fa29 5abc 36b6 423d f280 30bd
00000170: a89d 17bc 8ad2 11bd ac69 d23d c3a1 2bbd
00000180: 0d2e 23bd 65df 42bd 8194 f23d a3ea d4bc
00000190: d235 993c e56c 18bc b467 59bd cb88 a3bd
000001a0: ec81 763d 28e9 acbd 6f31 de3c e33c 56be
000001b0: c1ce 763c c1eb cbbd c73f 013b d278 fb3d
000001c0: ac3e 93bd e4f3 e53d e00d ea3d c8ee 983b
000001d0: d0e3 353d d460 bcbd becc 15bd f6d1 453d
000001e0: f598 953d 36be 41bc 16a5 06bd db2f 52bd
000001f0: 21e3 8bbd b833 a93d 8332 183d 0fd6 b9bb
00000200: c8fa c93b 27f9 973d 4eac 6a3d 04b1 72bd
00000210: 7a97 bebc e484 1ebd 39ac 7abc c9b9 b13c
00000220: 9acf c3bd 29f1 3cbd b38d 7a3d 8fff 3e3b
00000230: 963c c53c 85bd db3a 7523 aebc 6e6e cbbc
00000240: 96e3 0bbd b025 e13c 4135 babd 3af2 d63b
00000250: dcb0 2dbd e89d a03d d0a8 9e3d fcb4 42bd
00000260: 9bca 4a3d fd4f b93d 7e2f 033c 2518 d4bb
00000270: 09c7 853d 559d 043c 0607 84bd 6a38 64bc
00000280: fcf3 e03d d145 383d b1ef fc3c e558 bf3d
00000290: a018 d63d c85d 6fbd 2117 90bc 0614 6bbd
000002a0: ee55 15bc 89c2 b2bd b9db 353b 5fbb 173c
000002b0: c0dd 5cbd 0a33 273d 262e f23d f547 18bd
000002c0: a1f9 fd3c 1a99 ba3b c770 9cbd a52f a83c
000002d0: 226e d9bd 995f 663c 2c32 b4bd fea2 9d3d
000002e0: 12db 81bd 06ad 95bd 61ee 84bd 3d39 34bd
000002f0: 5f29 0abd a42e 63bb cd21 853d 355c 62bc
00000300: c81c 313c 2349 203d 99cf a53d 1b0a 6dbd
00000310: fd0c d8bd d8cb a9bb 1835 953d ea00 19bd
00000320: 5ea6 6d3c 737f 913c 6ac1 af3d bd18 b1bd
00000330: 208a b03c 4525 a8bd 76db b0bd d772 89bd
00000340: fad8 07bd d060 f63d b3c2 2a3d 5c18 61bd
00000350: 4553 43bd 05ef 953c 28f1 07bc 8f72 b1bc
00000360: 1167 043d 9743 4dbd 11ea 72bc 8690 bb3b
00000370: 13d7 07be 36e8 903c 65b4 933d dd1d 243d
00000380: 5aca ee3d 1318 afba 8195 97bc 8c6d 72bb
00000390: c8ca dbbd e116 f2bc ead2 a13d 61ad a13d
000003a0: ac6d b63d 8340 aebd de39 fd3c 6d26 253c
000003b0: 5f0a 15bc b2cd 51bd f86a 5dbb a0b4 243c
000003c0: 0885 00bd 91f7 85bd e134 8f3d f20a ce3c
000003d0: 7cdd 843d 5447 063d 2cdf 85bd 756f 893d
000003e0: 9415 da3d acf5 55bd 5c6f 9d3d 8a06 2abd
000003f0: 13c5 e43d fee8 43bd f633 a5bd bdc6 653d
-0.051968306 0.13960068 0.011743785 0.012013195 -0.025060296 -0.08626811 0.08512186 0.04713932
-0.034256514 0.013196396 -0.049625095 0.052072935 -0.06986271 -0.03156754 0.05180185 -0.13778624
0.080528304 0.06515697 -0.07324179 -0.050325535 -0.0042214966 0.12407328 0.086488456 -0.028597213
-0.047391314 -0.034196135 -0.053556543 -0.012542431 0.016014963 0.0848022 0.17395338 0.108003125
-0.06648957 0.1420927 0.012960912 -0.103213325 0.011993084 0.06397959 0.019785961 -0.009095459
0.10425037 0.00015818716 0.056044042 -0.033683445 -0.045360174 -0.07234209 -0.07189221 -0.0064901696
-0.044121124 0.08876755 0.06271616 0.09927249 0.055961046 -0.13807848 -0.2029619 -0.14363076
0.010003771 0.052837916 0.07951968 -0.05613278 0.10031792 0.01778693 -0.025282 0.11348632
-0.129839 -0.0024566136 -0.075117044 0.060780633 -0.049312256 0.09406397 -0.0056077857 -0.0051774257
0.07404814 0.014320055 -0.04437336 -0.030677581 -0.13547318 0.07225153 -0.07083678 0.019497221
-0.048289444 0.15187238 0.1390738 0.08538765 -0.00868232 -0.1148958 -0.078856416 -0.056869313
0.08359421 -0.013315672 0.04753705 -0.04309172 -0.009253897 -0.035601176 0.102740616 -0.041902315
-0.03983884 -0.047576327 0.11844731 -0.02599079 0.018702421 -0.009303306 -0.053077415 -0.079850756
0.060182497 -0.084429085 0.027123181 -0.20921664 0.015063942 -0.09957076 0.0019721852 0.12278904
-0.07189688 0.11228159 0.11428428 0.004667137 0.044406712 -0.09198156 -0.03657221 0.048295937
0.07304565 -0.011825135 -0.032872282 -0.05131517 -0.06830431 0.08261818 0.037157547 -0.0056712697
0.0061639287 0.07420569 0.05729323 -0.059250847 -0.023265589 -0.038700953 -0.01529985 0.021695035
-0.09561081 -0.046128426 0.06117029 0.0029144024 0.024076741 0.0016764855 -0.021257142 -0.02483293
-0.03415259 0.027483791 -0.090921886 0.0065596374 -0.042404994 0.07842618 0.07747042 -0.04753588
0.049509626 0.0904846 0.0080069285 -0.006472605 0.065321036 0.0080941515 -0.06446652 -0.013929466
0.10984036 0.044988457 0.030876013 0.09343127 0.104539156 -0.058439046 -0.017589154 -0.057392143
-0.0091147255 -0.08728511 0.0027749373 0.009260981 -0.053922415 0.04082016 0.11825208 -0.037178
0.031002821 0.0056945207 -0.07638698 0.020530531 -0.10616709 0.014060878 -0.08798632 0.07697104
-0.063406125 -0.07308392 -0.0649078 -0.0439999 -0.03373086 -0.003466525 0.065005876 -0.013815929
0.010810085 0.03913225 0.08096237 -0.057870965 -0.10549352 -0.005181771 0.072855175 -0.037354387
0.014504997 0.017760968 0.08581813 -0.086472966 0.021550238 -0.082102336 -0.08635609 -0.06711357
-0.03316591 0.12030184 0.041689586 -0.05495487 -0.047686834 0.01830245 -0.008297242 -0.021661071
0.032324854 -0.050113287 -0.014826314 0.0057240156 -0.13265638 0.017688852 0.07212142 0.040067542
0.11659689 -0.0013358615 -0.018503906 -0.0036991565 -0.10732037 -0.029551925 0.07901557 0.078943975
0.08907637 -0.085083984 0.030911382 0.010079962 -0.009096711 -0.051221557 -0.0033785682 0.01005283
-0.03137687 -0.0654136 0.06992508 0.025151704 0.06487557 0.032782868 -0.06536707 0.06710712
0.10648647 -0.052236244 0.07687256 -0.041510142 0.111704014 -0.04782962 -0.080665514 0.056097735

fc2.bias f4 [84]
00000000: ab8a 7c3d ee72 6c3d 5b5a d73d ec3e 74bd
00000010: 63fc e2bc 25d5 983d b351 823d e0d6 cdbd
00000020: a5e1 a23e 521f 84bb e284 fe3d 5b80 61bd
00000030: c1d3 533e 023e c73d 60e0 173e 6388 213e
00000040: 9be2 113e 43e0 b03d 68e8 8c3d def3 173d
00000050: 5152 46bd e0d3 743c 7b9c abbd 4063 473d
00000060: 4738 9bbc c67e b3bd 5c83 723d 9b62 9fbd
00000070: 7e02 c23e 8ffc 48bc f874 a73c cb27 e8bc
00000080: a9f2 4e3c 82f4 88bc 4368 5cbc 8a87 d0bc
00000090: 1499 fcbc 8ff9 b3bd 774f ab3c 814c 1d3d
000000a0: 14a7 bbbd da3f a4bc 0569 143d 024c b83e
000000b0: e466 963c 7931 ab3e 1be9 3dbc 0d47 96bd
000000c0: f38a d9bb e8ed 01be 7149 5a3d 46b5 10be
000000d0: 9d08 38bd 285c 853d d084 66bc 4fc5 c83c
000000e0: e894 223e 14a6 863d 6d36 433e 44af 903b
000000f0: d13d 503e ec74 3b3e eabf 89ba 6ac0 483c
00000100: e0db 4cbc 2df7 6ebd d9cf 0e3e 2636 2d3e
00000110: 6c4d cabc 7448 bc3c ef76 0fbd 23a0 1dbd
00000120: 93e9 66bd a180 293e c4c9 8e3e f471 a63d
00000130: 161e bc3e 97e7 a7bd 87c3 9dbd a0cf ad3c
00000140: 6610 d4bb d5e0 96bd c0df 993d c6e3 6cbb
0.06165568 0.057726793 0.10515281 -0.05963032 -0.027708238 0.07462529 0.06363239 -0.1005075
0.31812778 -0.004032054 0.12427689 -0.05505405 0.20686246 0.09728624 0.14831686 0.15774684
0.142466 0.086365245 0.068802655 0.037097804 -0.048418347 0.014943093 -0.08379456 0.048678637
-0.018947734 -0.087644145 0.059207305 -0.077824794 0.37892526 -0.012267246 0.020441517 -0.028339287
0.012631097 -0.016718153 -0.013452592 -0.025455255 -0.030834712 -0.08787834 0.020911915 0.038403038
-0.09162727 -0.020049978 0.036232967 0.3599549 0.018359609 0.33436182 -0.011591221 -0.073377706
-0.0066388785 -0.1268841 0.053292695 -0.1413165 -0.04493009 0.06511718 -0.014069751 0.024508147
0.15877116 0.06574646 0.1906373 0.0044154245 0.20336081 0.18306321 -0.0010509465 0.012252906
-0.012503594 -0.058341194 0.13946475 0.16915187 -0.02469512 0.022983767 -0.035025533 -0.038482796
-0.056375097 0.16552974 0.2788831 0.081272036 0.36741704 -0.08198469 -0.077033095 0.021217167
-0.0064716814 -0.07367102 0.0751338 -0.0036146506

fc3.weight f4 [10, 84]
00000000: 1f15 a33e 4c92 3f3e 9c2b d83d 2c73 013e
00000010: 881c 1cbd 53b7 5e3d 7a92 9e3d a242 043a
00000020: 748e 18be 8e2f 91bd 1085 aebd 87ae 9e3d
00000030: 4bf6 63be df46 2c3d ffc1 08be 57bc 83bd
00000040: 13ac 0f3e 5bca 533c 38fe 3a3e eddb 713d
00000050: 6272 6bbc bbfa b33d a10a dcbc 2fb6 ab3d
00000060: afcc 093e 5fa7 a3bd 3840 65bd 44ea efbc
00000070: a938 9ebe a050 bcbd ffed 86bc fbde 8abd
00000080: f188 e2bc 04a4 8ebd 4ad8 4dbd c205 c13a
00000090: 16e2 47bc fc3e ac3d baea 963d f95e dd3c
000000a0: 513c 02bd 8cfb 89bd 2b3d ac3d 6182 aa3e
000000b0: 1c37 2dbe b08a 2cbe a0ed 133e 463a ad3d
000000c0: 9284 053e e08e a5bd e505 d7bd 4d7b dfbd
000000d0: cf77 953d f220 7f3d b316 0fbd 702c 713e
000000e0: 025f 38be d8f1 843e 29e6 06be ab6e 7f3c
000000f0: 665c 633e 36f5 d33b 0d43 10be 8155 92bc
00000100: 6a81 fa3d f4bf 963b 51cc 95bc c427 a33c
00000110: 915c 8c3d d6da 9b3d 93ac 253e 48c5 f93c
00000120: 4f07 4c3e dfb2 9f3e 8c6e 63bd 0c95 123e
00000130: f33a b5bd b86c 453a b809 c2bb 8f4e 973d
00000140: 2967 22bd 933f 0f3e 87e9 8cbe 0849 84bd
00000150: 7590 7d3e 3d8a 863c bd36 e339 872b ff3d
00000160: 9593 bebb 84fc 82bd 7942 49bd e50d 5f3e
00000170: 9470 91be e266 063e f49e bf3d 54eb c83d
00000180: 0909 dabd af37 45be 10b0 b23d e48a 2b3e
00000190: 5137 31be 5b3a 26be 9103 86be 9f61 f9bd
000001a0: c10f b8bd a4e7 d3bc 3698 a9bd 0ce6 13bb
000001b0: 56b6 683c 5b03 8fbd fbed 1fbe c501 52bb
000001c0: ded2 58be 5706 593d ac96 763d 11f0 d73b
000001d0: cc1d cd3d 670f 9cb9 1d3b 3d3d 16a7 bc3e
000001e0: 19f4 8f3d a41f 86bc 69be 633e 556c 663d
000001f0: d1d7 413e 60a5 7bbd f15f 013e e70e 86bd
00000200: 9843 2fbe 3fb9 28be d967 64bd 80a6 8f3d
00000210: 47d4 b43d e436 b33e db26 de3d bd7f a63d
00000220: a4e9 a13c 5077 f5bd 44e2 413e ea51 963e
00000230: 713e 42be 5cc4 05bd 3da3 71be 9f4c e5bb
00000240: 23ec f7bd 420a 813e 8b29 f93d 7744 713d
00000250: 9d22 323e 7f30 0a3d c8a1 69bb 4170 debd
00000260: 54c7 86bd 8adf e23d 0428 1f3e 86aa 9c3d
00000270: dce2 37be 1ad5 3d3d d1a2 92be 24ec bfbc
00000280: 0ad3 ccbd f051 913c f6be 2cbc b88e 27be
00000290: 789b 3b3e 2b26 cbbd ebb3 8dbc 56c1 d53d
000002a0: 24d2 4bbe 049a 333d 0c18 c53d 78b1 24bd
000002b0: d4c3 eebd 502e 5e3e c55b 8d3d 214a 77bd
000002c0: b666 483e 07fd 81bd 1d40 42be 30e9 61bd
000002d0: 0039 253e 0eaa 963e 6197 19bd 644d 4cbd
000002e0: de17 8ebc 593d 623e 4eab 103d a63d b73d
000002f0: b5c0 afbd f1a5 863d 3d02 2ebd 2032 cbbd
00000300: db0c 693e 4dec 70bc 8df1 1fbe aaf7 0b3d
00000310: 590d 963e 19e0 5b3d 4f8a b3bd 0570 a33b
00000320: 1d61 46bd 4782 24be 167c e73c e389 c2bd
00000330: ad6e 5abc 57f4 83bd 5577 20be 0159 713d
00000340: 28d4 83bd 3916 003b 4345 2bbe c556 1c3e
00000350: 4896 08be 5f4a acbc 433d 7dbd 8f97 91bd
00000360: 4f27 443d 3490 a9bc ae0a 953d 5011 d8bc
00000370: edf1 9cbd bd3e d33d f921 a13d c080 0abd
00000380: 3d2f 863d 528a a0bc a016 433e 8b31 c63d
00000390: 05cc 8e3e b64f 6cbd a2f4 d13d ba27 c43c
000003a0: 7e58 9bbd 3459 8abd 5cbb 5a3e c707 043d
000003b0: a16f 9bbd 67e4 e6bd 20c4 bbbd eebb fc3d
000003c0: a12b 2bbd 195b 133e 4eae 443d 4307 353e
000003d0: 78a3 cbbd 59dd 89bd 5dfa 59bd c63b 4d3c
000003e0: 37b1 69bc 12ef bf3d ac76 473e 8ceb fe3d
000003f0: 8a45 5dbe b929 a83b 4df5 2a3d 19d3 9e3d
0.31852052 0.18708152 0.10555193 0.12641591 -0.038113147 0.05437405 0.07742782 0.00050453295
-0.14898092 -0.070891485 -0.085214734 0.07748132 -0.22261922 0.042059775 -0.13355254 -0.06432407
0.14030485 0.012926663 0.1826104 0.05904763 -0.014370533 0.087880574 -0.026860537 0.08384358
0.13456987 -0.07990908 -0.055969447 -0.029286511 -0.30902603 -0.091950655 -0.016470907 -0.067808114
-0.02765319 -0.06964877 -0.050255097 0.0014726447 -0.012199899 0.08410451 0.07368989 0.027022826
-0.031795803 -0.06737432 0.08410104 0.33302596 -0.16915554 -0.1684978 0.14446115 0.084583804
0.13038853 -0.08083892 -0.10499171 -0.1091219 0.07298242 0.06228728 -0.034933757 0.23552108
-0.18004993 0.25965762 -0.13173737 0.01559035 0.22203216 0.0064684404 -0.14088078 -0.017863037
0.12231715 0.0046005193 -0.018285902 0.019916423 0.06853593 0.07610099 0.16179113 0.030489579
0.19924663 0.31191155 -0.055525348 0.1431467 -0.08849134 0.0007531154 -0.0059215687 0.07388031
-0.039649162 0.13989095 -0.27521917 -0.06459242 0.24762137 0.016423339 0.00043337597 0.12459474
-0.005815933 -0.0639582 -0.04913566 0.21782644 -0.28406203 0.13125184 0.0935649 0.0981051
-0.106462546 -0.19259523 0.087249875 0.16752201 -0.17306258 -0.16233198 -0.26174596 -0.12176823
-0.0898738 -0.02586729 -0.08280985 -0.0022567539 0.0142036285 -0.06983062 -0.15618126 -0.0032044512
-0.2117419 0.05298456 0.060202286 0.0065898974 0.10015449 -0.00029766114 0.046198953 0.36846226
0.0702898 -0.01637251 0.22240604 0.056255657 0.18929984 -0.06143701 0.12634255 -0.06545811
-0.17115629 -0.16476916 -0.0557631 0.07014179 0.08829551 0.35002816 0.10847255 0.08129833
0.019764729 -0.11985648 0.1893397 0.2935937 -0.18969132 -0.032657966 -0.23597427 -0.0069976593
-0.121055864 0.2520314 0.12166127 0.058903184 0.17396016 0.033737656 -0.0035649408 -0.108612545
-0.065809876 0.11077793 0.15542608 0.07649712 -0.17957634 0.046345808 -0.28639844 -0.02342803
-0.1000119 0.017739266 -0.0105435755 -0.16363037 0.18321025 -0.09919389 -0.017297706 0.104372665
-0.19904381 0.043848053 0.09623727 -0.04020831 -0.11658445 0.21697354 0.06902269 -0.06037343
0.19570431 -0.06347089 -0.1896977 -0.055154026 0.16135025 0.29426616 -0.03749788 -0.049878493
-0.017345365 0.22093715 0.03531962 0.089473054 -0.08581678 0.065746196 -0.042482603 -0.0992167
0.2275881 -0.014704776 -0.15619488 0.034171738 0.29307058 0.053680513 -0.08766615 0.004987719
-0.04843246 -0.16065322 0.028257411 -0.09498956 -0.013332051 -0.064430885 -0.15670522 0.05892277
-0.0643695 0.0019544496 -0.1672564 0.15267475 -0.13338578 -0.021031557 -0.061826 -0.07108986
0.04788905 -0.020698644 0.072774276 -0.026375443 -0.07663331 0.10314701 0.07867808 -0.03381419
0.06551979 -0.019597206 0.190516 0.09677418 0.2789003 -0.057693206 0.10251738 0.023944724
-0.07585238 -0.067552954 0.21360534 0.03223398 -0.07589651 -0.11274033 -0.09168267 0.12340532
-0.041789655 0.1439022 0.048017792 0.17678551 -0.099432886 -0.06731672 -0.05321728 0.012526458
-0.014263443 0.09371771 0.19478863 0.12447271 -0.21608558 0.005131927 0.041737843 0.077551074

fc3.bias f4 [10]
00000000: fd66 6fbe bd31 1abf 2e1f 163e ab6e e13e
00000010: e9d4 cb3e 8bc6 f5bd bc9e b73d 91a4 bfbe
00000020: 87d9 a03e 6d09 9fbe
-0.2337913 -0.60232145 0.14660332 0.44029745 0.39810875 -0.1200076 0.08965823 -0.37430242
0.3141596 -0.3106188
